model.pt (torch, 27828 bytes, 5 tensors)

weight f4 [64, 1]
000000 7d d5 9c 3f bf 2b 66 3e a3 28 5c 3f cf 47 f3 3e
       1.2252651 0.22477625 0.85999507 0.47515723
000010 fd be c4 3e 70 7e 24 be 7d fb 24 3f 28 4c a9 be
       0.38426962 -0.16063857 0.6444624 -0.33065915
000020 ca 8b 8d 3f fa 4f 58 3f b6 f6 01 bb 90 d4 e9 bb
       1.1058285 0.84497035 -0.001983089 -0.007135935
000030 e9 bf 66 3f bb 09 8a 3f 23 8a 2e bc be de 87 3f
       0.9013658 1.078422 -0.010653052 1.061485
000040 a8 ea 2d bf be cd 6b 3f 8d 31 20 bc 25 3c d5 3e
       -0.6793618 0.9211081 -0.009777439 0.4164745
000050 80 d7 3d bc 2e 60 8f 3f ef ad 95 3f 6a 03 aa bd
       -0.011587024 1.1201227 1.1693705 -0.083014324
000060 24 3a 0d 3f f4 d7 1b bf 54 12 eb be 98 61 86 3f
       0.5516684 -0.60876393 -0.4591242 1.0498533
000070 a1 f7 a3 3c d3 1c 0b 3f 70 14 35 be 00 8e 72 bb
       0.02001554 0.5434086 -0.17683578 -0.0037010908
000080 a0 70 13 bd e0 30 b7 3e 64 63 03 3f 80 a8 1e be
       -0.03599608 0.35779476 0.51323533 -0.15493965
000090 6d 5d 6f bb eb ff ba 3e ea 97 3b 3f 38 1a d1 ba
       -0.0036524192 0.36523375 0.7327868 -0.0015953248
0000a0 e2 7c 18 bf d6 e9 34 bf 70 a8 ef be aa c9 ed ba
       -0.59565556 -0.70669305 -0.46808195 -0.0018141766
0000b0 1a 42 91 3f 57 6b 37 bc bc 48 00 bf de 18 ad 3f
       1.1348298 -0.011195025 -0.50110984 1.3523214
0000c0 8c bc 1d bf c9 b3 c1 3e 8a 70 2e 3c 74 f8 5f bf
       -0.61615825 0.37832478 0.010646949 -0.87488484
0000d0 3b 16 12 3c 84 d2 80 be 00 09 7f bd b9 ec 66 3f
       0.008916433 -0.2516061 -0.062264442 0.9020496
0000e0 24 b7 1c bf ac 27 30 bf c5 19 82 3f 7e b4 9d 3f
       -0.6121695 -0.68810534 1.0164114 1.2320707
0000f0 00 fc 17 3f e5 8e 8f 3f 49 c0 ee bb 7b c4 a8 3f
       0.59368896 1.1215483 -0.007286106 1.3184961

bias f4 [64]
000000 ce 67 1c c0 a8 d9 44 c0 a1 cd 80 3f 8e 33 ec 3f
       -2.4438357 -3.0757847 1.0062753 1.8453233
000010 a7 60 66 c0 04 aa f5 be 16 7e 8d 3f d4 98 91 be
       -3.5996492 -0.47981274 1.1054103 -0.2843691
000020 a1 a3 36 be 27 98 a3 bf 3b 67 7c 40 89 84 8e 40
       -0.17835857 -1.2780808 3.9438007 4.4536786
000030 01 1d f9 bf 01 e8 f7 bf d3 1f 98 40 34 4a f6 bf
       -1.9461976 -1.9367677 4.753885 -1.9241395
000040 d8 4c 5f be c9 22 bd bf cc d8 96 40 99 61 0c c0
       -0.21806657 -1.477624 4.7139645 -2.193457
000050 08 a9 b9 be 2d 2a 03 c0 6d dc 08 3f e8 e3 b2 40
       -0.36261773 -2.0494492 0.53461343 5.5903206
000060 61 d6 1a c0 50 9f a8 bd 30 2c 7c bf e7 b7 c2 bf
       -2.4193347 -0.082335114 -0.98504925 -1.5212373
000070 67 4e 9e 40 c9 0a d8 bf 90 f2 38 bf 18 df 1b be
       4.9470706 -1.6878291 -0.7224512 -0.15221822
000080 7a bd 69 bf 53 a8 b3 bf f5 b3 80 bf e6 de 3e bf
       -0.91304743 -1.4035743 -1.0054919 -0.74558866
000090 07 b6 82 40 c8 6c 2d c0 00 ee 9b c0 d2 ef 9c 40
       4.08472 -2.7097645 -4.8728027 4.904275
0000a0 14 09 a6 be 38 d6 5b be 84 7c d3 be e3 b2 9a 40
       -0.324288 -0.21468437 -0.41305935 4.8343368
0000b0 42 63 02 c0 01 18 a0 40 ce fd 6a bf 2d 81 11 bf
       -2.0373082 5.00293 -0.91793525 -0.5683773
0000c0 68 8a 78 be b5 95 91 c0 45 04 89 40 28 41 64 bf
       -0.24271548 -4.549525 4.281771 -0.8916192
0000d0 fd ab 95 40 56 b4 6d bf 98 df 59 bf 98 db bb bf
       4.6772447 -0.92853296 -0.851068 -1.467639
0000e0 40 c7 6f be 06 c1 67 bf bb 13 f8 3d 94 30 89 bf
       -0.23415852 -0.90528905 0.12113138 -1.071795
0000f0 9f 24 13 c0 0d a0 3a c0 85 fc 8b 40 e7 55 27 c0
       -2.2991102 -2.9160187 4.374575 -2.614618

weight f4 [64, 64]
000000 65 62 81 be 0c 80 a8 3e ac 7b e9 3d ba ad 3d 3e
       -0.25270382 0.32910192 0.11400542 0.18523303
000010 4d 45 80 be b8 d4 89 3c b4 bc 01 3e ba f5 e6 3d
       -0.25052872 0.016825065 0.12669641 0.11277337
000020 e5 a3 55 bd d3 46 ac 3b 9e 1f 75 40 1a 5d 7b 40
       -0.052158255 0.0052574663 3.8300548 3.9275575
000030 01 d3 be bc 25 a2 91 3c 9f ae 7d 40 01 2d 44 bd
       -0.023293974 0.017777512 3.963783 -0.04789448
000040 90 de 61 bc 95 a9 a2 bc 84 17 7a 40 7b 81 c5 bd
       -0.013785973 -0.019856254 3.9076853 -0.09643837
000050 d0 7f 0a 3c 76 21 0a bc a1 ce 5e bb 52 9c b8 c0
       0.008453324 -0.008430829 -0.0033997672 -5.769082
000060 1a ff 23 be f0 ce 0c 3c 60 11 8e bd ec 71 ad bd
       -0.16015282 0.00859426 -0.06936908 -0.084689945
000070 8c 40 3b 40 d5 ee 4c be 00 4f 47 bc b2 f5 ba 3d
       2.9258146 -0.20012982 -0.012164831 0.09128894
000080 20 ce aa 3c c3 c8 aa 3d b8 22 81 3d e8 48 cf 3c
       0.020850241 0.083390735 0.0630545 0.02530332
000090 e3 d5 7c 40 e2 8e 1c be eb 06 29 be 65 29 65 40
       3.9505546 -0.1528888 -0.16506545 3.5806515
0000a0 c0 f0 41 3c a8 60 a0 3d 80 6a 3d 3c 81 af 60 40
       0.011837184 0.07830936 0.011561036 3.510712
0000b0 02 19 2b bc e4 9f 7a 40 38 b2 eb 3c 4d 3a d5 bd
       -0.010442974 3.916009 0.028771505 -0.104115106
0000c0 58 e8 19 3d 03 64 f5 bd 02 d8 37 40 40 2b 9e 3d
       0.037575096 -0.11981966 2.872559 0.07723093
0000d0 42 14 4e 40 3c 6c 56 3d 70 10 db 3c be 1a a0 bc
       3.2199864 0.052349314 0.026741236 -0.019544002
0000e0 18 c7 f3 bc 54 66 3c bd e6 22 00 be 99 ca 6e 3d
       -0.029758021 -0.045996025 -0.12513313 0.05829868
0000f0 fd 38 66 be e7 a2 8c be c8 66 81 40 93 18 58 be
       -0.22482677 -0.27468035 4.0437965 -0.21103124
000100 04 6b 48 be 2c 36 84 3e 38 8b 3a 3d 5d c8 69 3e
       -0.19572073 0.2582258 0.045542926 0.22830339
000110 02 a4 4a bd 92 a0 ef 3d 37 1f 28 3e a8 fd 8b bd
       -0.049472816 0.11700548 0.16418158 -0.068354905
000120 e5 3d 2c bd b4 54 d3 3c 81 bf 80 40 13 ae 7a 40
       -0.042051215 0.025797226 4.023377 3.9168746
000130 de 1d 08 bd 1c d7 9e bd 6e d6 77 40 f9 1c c8 bd
       -0.03323161 -0.077558726 3.8724627 -0.09771151
000140 34 ae 54 3d e0 18 3d be ed a6 6c 40 76 a5 10 bb
       0.051923946 -0.1846652 3.6976883 -0.0022071279
000150 5c 71 02 3d 64 cd 43 be 30 12 96 3d 10 bc b1 c0
       0.03184639 -0.19121319 0.07327688 -5.554207
000160 07 15 57 be 90 15 a5 bd 22 47 e6 3d da 6c 15 3d
       -0.21004115 -0.08060753 0.11244036 0.036480762
000170 b5 db 37 40 92 93 61 be 20 70 d3 bb fc b5 f9 bd
       2.8727849 -0.2202895 -0.0064525753 -0.12192914
000180 80 c2 92 3b 8c dc 35 bd dd c6 74 3d 14 41 d3 3d
       0.0044787526 -0.044399783 0.059759963 0.10315147
000190 ca 48 81 40 69 d3 1e be 63 56 32 be a5 08 60 40
       4.0401354 -0.15510334 -0.17415766 3.5005276
0001a0 a0 42 cd 3b 70 f1 bf bc e0 4b 08 bc ad 9b 5c 40
       0.006264046 -0.023430556 -0.008318871 3.4470017
0001b0 53 83 80 bc 96 a5 71 40 78 c1 11 3d 3e d7 bf bd
       -0.01568762 3.7757316 0.035584897 -0.09367226
0001c0 b2 67 97 bd 6c d1 39 be cc 6e 35 40 6a 85 e0 3d
       -0.07392825 -0.18146294 2.8348875 0.10962947
0001d0 83 e1 48 40 00 bd ea ba b2 80 ac 3d 63 61 28 be
       3.1387641 -0.001790911 0.08422984 -0.164434
0001e0 96 4a f6 bd d6 30 bf 3d 93 48 fe 3d b3 4e 55 3d
       -0.12025945 0.093354866 0.12416186 0.052077007
0001f0 36 30 e0 bd 21 89 8a be 45 75 80 40 ff 18 37 be
       -0.109466955 -0.27057746 4.014315 -0.17880629
000200 a0 1d 74 bd 7e df b1 bd 08 74 31 bd be 45 8f 3d
       -0.059598565 -0.08685206 -0.043323547 0.06995724
000210 54 20 01 bd b6 25 f3 3d 78 c2 3a bd 08 e9 bb bd
       -0.03152497 0.11872427 -0.045595616 -0.091753066
000220 8d d7 3b 3d 78 4f b9 3d 52 1b 63 bd 65 34 fe bc
       0.045859862 0.090483606 -0.055445977 -0.031030843
000230 c8 bb 47 bd 72 87 95 3d 75 99 81 3c 7c 88 68 3d
       -0.048763067 0.07301225 0.015820244 0.056770787
000240 a0 a8 ce bc 76 fd c9 3d 01 35 e3 bd 04 d8 c8 bd
       -0.025226891 0.09862797 -0.11094094 -0.09806827
000250 42 81 8c bd 32 9e 96 3d 96 c2 1b be 68 d6 5a 3d
       -0.068605915 0.07354392 -0.15210947 0.05342713
000260 f8 83 e8 3c 18 bb b4 3c 6c 73 8a bd 0c 4a 68 3d
       0.02838324 0.02206187 -0.06760296 0.05671124
000270 45 f1 00 be ae 94 b4 bd 68 09 59 3d 58 81 e3 3d
       -0.12592037 -0.08817421 0.052987486 0.11108655
000280 e6 4a df 3d 78 b2 a1 3c aa 47 f7 3d 38 64 1c 3d
       0.109029576 0.01973842 0.12074216 0.038181514
000290 b7 bf 75 bd 20 63 2c 3c 0c 81 d1 bd 50 36 7a bd
       -0.059997287 0.01052168 -0.10229692 -0.061086953
0002a0 ca 3f a1 3d 7e 93 d7 bd b0 ce f3 bd d8 f9 f3 bb
       0.07873495 -0.10526179 -0.11904657 -0.007445555
0002b0 80 a9 4a 3b 90 65 c0 3d ec 22 b8 bd 84 4d 1b be
       0.0030923784 0.093943715 -0.08991036 -0.15166289
0002c0 94 ff f2 bd e4 07 c1 bd 83 22 c7 bc 84 98 06 3d
       -0.11865154 -0.09425333 -0.024308449 0.032860294
0002d0 5c 61 9c 3c 60 c2 22 bc 82 66 ea bd f0 50 aa bc
       0.019089393 -0.009934038 -0.11445333 -0.020790547
0002e0 7a d2 cb bd 94 f5 12 3d d4 89 ff bc a4 ca f9 bd
       -0.099522546 0.035878733 -0.031193651 -0.12196854
0002f0 6c 82 30 3d c0 9f fb bd d5 ce 1c bd de d1 e0 bd
       0.04309313 -0.12286329 -0.038283188 -0.10977529
000300 25 b3 cf bd fb 80 a5 bc 0f ed d4 3d f2 e8 07 be
       -0.10141591 -0.020203104 0.10396778 -0.13272455
000310 a8 d4 1d bd dc b0 78 3d e8 f3 b1 3d 90 e6 04 bc
       -0.038532883 0.06071554 0.086890996 -0.008111611
000320 58 02 db bd 2e 01 65 bd f0 7d f8 bd 1b 39 e9 bd
       -0.106938064 -0.05590933 -0.12133396 -0.11387845
000330 dc 5a 65 3c 1d 7f b3 bd 4a 1d d1 3d 50 e9 fe bd
       0.013998713 -0.08764479 0.102106646 -0.124468446
000340 cc 4d b1 bd 45 19 80 3a 7e 00 c0 3d a9 cc 64 bc
       -0.08657417 0.0009773156 0.09375094 -0.01396481
000350 ca 67 83 3d bb 6c 06 be e9 3c 3c bd e0 ca 9e 3c
       0.064162806 -0.13127415 -0.045956526 0.019383848
000360 07 82 af bd ce 10 d2 bd f2 bc f9 3d 83 c4 50 3d
       -0.085697226 -0.102571115 0.121942416 0.05096866
000370 6c 61 77 3d 11 1b 9a 3c e4 7f 3b 3d e4 c2 36 3d
       0.060395643 0.018811734 0.045776263 0.044619456
000380 88 a0 a5 3c a3 4d 39 3d 61 3e df 3c de 1c de bd
       0.020218149 0.045240056 0.027251424 -0.1084535
000390 5b 71 fc bd dd d3 28 bc 00 71 42 3c 75 0a 00 be
       -0.12326308 -0.010304418 0.011867762 -0.12503989
0003a0 7c 07 a2 3d 3c 0a aa 3d 90 51 02 bc 17 b2 94 bd
       0.07911584 0.08302733 -0.007954016 -0.072605304
0003b0 4e 8c d0 3d 1b a0 a2 bd 80 a5 9a bb 54 ce 73 3d
       0.10183011 -0.07940694 -0.004719436 0.05952294
0003c0 d2 fe 8f bd 38 c7 6e 3d 41 5a 98 3d 7c e3 1f 3d
       -0.07031025 0.05829546 0.074390896 0.039035305
0003d0 83 0e 17 3d 60 84 dc bc 48 b6 d7 bd 19 58 d4 3d
       0.036879074 -0.02691859 -0.10532814 0.10368366
0003e0 24 59 0f 3d a0 8a 1a bd e2 48 b7 3b d9 54 84 bd
       0.03499712 -0.03772986 0.005593405 -0.06461496
0003f0 e1 35 bf 3c cb 27 87 bd cc db 0f bd 2f 3b 89 bd
       0.023341121 -0.06599387 -0.035121724 -0.067007415

bias f4 [64]
000000 f4 85 1c 40 22 fa 21 40 90 fb 49 bd 3d 2b d4 3c
       2.4456758 2.530892 -0.049312174 0.025899524
000010 39 00 94 40 3c 55 da bc 55 75 24 3a 55 3a cb bf
       4.625027 -0.026651971 0.00062735874 -1.5877177
000020 7a 89 d5 3b d1 c2 31 bd ad 13 a2 bf fc da 96 be
       0.0065166326 -0.043398682 -1.2662255 -0.29463947
000030 97 7f e7 bf 3b 30 2a 40 97 e6 47 bf 7a 5f 41 3d
       -1.8085812 2.6591938 -0.7808623 0.047210194
000040 f9 3c e3 bf 2c 00 c6 be 7b 87 c5 bd 34 7a 0d be
       -1.7752982 -0.38672006 -0.096449815 -0.13816148
000050 b1 53 06 be 81 b0 fb bf 0c a7 51 3d 32 99 a6 3d
       -0.13117863 -1.966324 0.0511847 0.081346884
000060 9d 3e 11 3d c7 fd 29 40 44 fc f8 be 51 6e b4 bd
       0.035460103 2.6561143 -0.48629963 -0.08810104
000070 49 1c 31 40 b9 33 0f 40 44 b4 0a c0 58 ac 9a bc
       2.7673514 2.237532 -2.1672525 -0.018881008
000080 56 0d a7 bf bb 5f c9 bd 1b 70 90 3d e7 fc cb bf
       -1.3050945 -0.09832712 0.070526324 -1.5936555
000090 24 25 48 3d 6c 10 43 3d 40 ee d6 3c b0 6d 3d bf
       0.048863545 0.047623083 0.026236653 -0.73995495
0000a0 17 bc 7a bf 25 71 b9 bf 7f 17 af bf 1e 8c a6 bf
       -0.9794325 -1.4487654 -1.3679045 -1.301151
0000b0 d7 e5 8f 40 a7 37 ca bf 01 60 8e bc 34 88 ef bd
       4.4968066 -1.5798234 -0.017379763 -0.116959006
0000c0 94 e5 c2 bd 22 c6 e0 bf 00 df f4 bd 83 e6 eb bf
       -0.09516445 -1.7560465 -0.119565964 -1.8429722
0000d0 fe 85 2c c0 c4 43 38 3a d1 09 be bf 98 5f 60 3d
       -2.6956782 0.0007029141 -1.4846746 0.054778665
0000e0 14 8e 52 3d 52 bb 48 bd d4 d9 85 3d d5 2e 41 3d
       0.051405028 -0.049006768 0.06535688 0.047163803
0000f0 21 6b cf bb 44 c0 84 3d 70 c1 34 bd bd d9 fb bc
       -0.0063299094 0.06481984 -0.04412979 -0.030743474

weight f4 [1, 64]
000000 2e b4 5e c0 6b 8e 6a c0 f0 bd 87 3c d3 fd dc bd
       -3.4797473 -3.6649425 0.016570061 -0.10790601
000010 8b 68 b9 40 71 47 8e bc 9f f0 92 bd eb 38 7e 3f
       5.7940116 -0.01736805 -0.07174801 0.993056
000020 53 6e 7d bd ab 53 c9 bd 87 ba 2b 3f 81 21 1c 3f
       -0.06187279 -0.098304115 0.67081493 0.6098862
000030 68 e4 71 3f 47 db 6e c0 91 8d 28 3f ca c0 dd bd
       0.94489145 -3.7321336 0.65841013 -0.10827787
000040 73 97 90 3f d6 26 1e 3f 91 8a 18 3f d3 56 1e bd
       1.1296219 0.6177801 0.59586436 -0.03865702
000050 fb c8 15 bb 8f a9 9a 3f c6 56 a8 3d 40 1d af 3b
       -0.002285539 1.2082995 0.08219676 0.005344063
000060 49 a3 cf bd c6 49 6b c0 49 21 23 3f a9 83 11 bd
       -0.10138566 -3.6763778 0.63722664 -0.03552595
000070 49 4b 80 c0 de 57 37 c0 87 83 5a 3f 78 1e df bd
       -4.00919 -2.864738 0.85356945 -0.10894483
000080 0c b9 47 3f c0 de e9 bd 97 bd 6d 3b d3 60 47 3f
       0.78016734 -0.11419439 0.0036276334 0.7788212
000090 4e 02 9a bd cc 1b 93 bd 60 a0 69 3d f9 de 24 3f
       -0.07519971 -0.07183036 0.05703771 0.6440273
0000a0 b2 ab 2d 3f 79 03 69 3f dd 5a 32 3f 7b 7d 40 3f
       0.6784011 0.91020924 0.69669896 0.7519147
0000b0 f5 9a b9 40 b2 a8 6b 3f b1 ed 16 bd 20 30 fd 3b
       5.8001657 0.92054284 -0.036847774 0.007726684
0000c0 0e 1c 89 bc 26 36 7d 3f b3 59 1b 3f 48 55 8a 3f
       -0.01673701 0.9891075 0.60683745 1.0807276
0000d0 fd 19 ca 3f 59 96 29 bd a5 44 4b 3f 98 7e 97 bd
       1.5789181 -0.04140315 0.7940162 -0.07397193
0000e0 5a b4 7c 3b fb 0f 1d 3d 83 89 17 bd c4 9b 85 bd
       0.0038559646 0.03834532 -0.036996376 -0.065238506
0000f0 48 74 93 bc 26 cc a0 3d c0 dc 6e bd aa f6 a0 bc
       -0.017999783 0.07851438 -0.058315992 -0.019648869
