models/Test_abcdef_1.pt (torch, 27864 bytes, 5 tensors)

weight f4 [64, 1]
0.87877727 -0.0054790974 0.52452457 0.10837865 0.11635494 -0.16063857 0.29958296 -0.33065915
0.7604401 0.4679495 -0.07077956 -0.47831082 0.5408999 0.74302256 -0.5442674 0.6815599
-0.6793618 0.5553427 -0.54017615 0.085671544 -0.011587024 0.7606623 0.82548285 -0.7455648
0.23292792 -0.60876393 -0.4591242 0.71588135 -0.7789391 0.16864252 -0.17683578 -0.0037010908
-0.03599608 0.004126191 0.17846656 -0.15493965 -0.11630225 0.088250875 0.5309143 -0.64138067
-0.59565556 -0.70669305 -0.46808195 -0.64638245 0.79327834 -0.4965334 -0.50110984 0.98787177
-0.61615825 0.17041266 -0.53160393 -0.87488484 -0.67696476 -0.2516061 -0.062264442 0.544173
-0.6121695 -0.68810534 0.68195426 0.87402034 0.24334228 0.75036144 -0.24761236 0.9657389
00000000: 8cf7 603f 008a b3bb 3e47 063f a0f5 dd3d
00000010: 804b ee3d 707e 24be f062 993e 284c a9be
00000020: 34ac 423f 1497 ef3e e0f4 90bd 28e5 f4be
00000030: 6a78 0a3f ba36 3e3f 1c55 0bbf b67a 2e3f
00000040: a8ea 2dbf f02a 0e3f fc48 0abf 9074 af3d
00000050: 80d7 3dbc c4ba 423f d852 533f 56dd 3ebf
00000060: a884 6e3e f4d7 1bbf 5412 ebbe 0044 373f
00000070: 8e68 47bf a0b0 2c3e 7014 35be 008e 72bb
00000080: a070 13bd 0035 873b f0bf 363e 80a8 1ebe
00000090: e02f eebd e0bc b43d 00ea 073f 8631 24bf
000000a0: e27c 18bf d6e9 34bf 70a8 efbe 5279 25bf
000000b0: 4a14 4b3f a039 febe bc48 00bf 2ae5 7c3f
000000c0: 8cbc 1dbf a880 2e3e 3217 08bf 74f8 5fbf
000000d0: 904d 2dbf 84d2 80be 0009 7fbd ec4e 0b3f
000000e0: 24b7 1cbf ac27 30bf 8e94 2e3f ccbf 5f3f
000000f0: b82e 793e b017 403f 188e 7dbe aa3a 773f

bias f4 [64]
-0.9571463 0.12110293 0.9151261 0.99747455 -0.06758928 -0.47981274 0.98992634 -0.2843691
0.69546556 0.34524107 0.050103188 0.39551485 -0.5613525 -0.043682218 0.7024782 -0.262895
-0.21806657 -0.37141526 0.6391289 0.103949904 -0.36261773 -0.57113004 0.98509717 0.15149868
-0.06258798 -0.082335114 -0.98504925 0.08659685 0.7976837 0.13245451 -0.7224512 -0.15221822
-0.91304743 0.23005569 0.4035741 -0.74558866 0.16200984 0.15337026 -0.7688501 0.8044723
-0.324288 -0.21468437 -0.41305935 0.71874845 -0.1849351 0.9537376 -0.91793525 0.68119586
-0.24271548 -0.3972019 0.16612756 -0.8916192 0.54147995 -0.92853296 -0.851068 0.27371013
-0.23415852 -0.90528905 0.8028444 0.44318342 -0.07306528 -0.8473352 0.4179765 -0.52920663
00000000: 8a07 75bf d004 f83d b445 6a3f 7e5a 7f3f
00000010: 406c 8abd 04aa f5be d06b 7d3f d498 91be
00000020: 080a 323f 70c3 b03e 0039 4d3d ec80 ca3e
00000030: ccb4 0fbf 20ec 32bd 9cd5 333f 2c9a 86be
00000040: d84c 5fbe 242a bebe f49d 233f b0e3 d43d
00000050: 08a9 b9be 9435 12bf 542f 7c3f 7822 1b3e
00000060: 202e 80bd 509f a8bd 302c 7cbf b059 b13d
00000070: 0035 4c3f 28a2 073e 90f2 38bf 18df 1bbe
00000080: 7abd 69bf b893 6b3e 44a1 ce3e e6de 3ebf
00000090: e8e5 253e 180d 1d3e 5cd3 44bf e6f1 4d3f
000000a0: 1409 a6be 38d6 5bbe 847c d3be e6ff 373f
000000b0: a05f 3dbe 2628 743f cefd 6abf da62 2e3f
000000c0: 688a 78be 0c5e cbbe 581d 2a3e 2841 64bf
000000d0: 6e9e 0a3f 56b4 6dbf 98df 59bf bc23 8c3e
000000e0: 40c7 6fbe 06c1 67bf 3687 4d3f f0e8 e23e
000000f0: 40a3 95bd f6ea 58bf 0401 d63e 167a 07bf

weight f4 [64, 64]
-0.105334386 0.028909162 0.10419804 0.09134178 -0.108641475 0.016825065 0.08557682 0.11277337
-0.032878354 0.055340588 -0.111247 0.08324544 0.124511376 0.10767044 0.11869757 0.056568086
-0.013785973 0.105347216 0.05797103 0.022523388 0.008453324 0.11719315 -0.0008313656 -0.1053918
-0.018928692 0.00859426 -0.06936908 -0.009724706 0.020328656 -0.09354621 -0.012164831 0.09128894
0.020850241 0.11675441 0.11916891 0.02530332 0.009246454 -0.03301114 0.00967291 0.0064209104
0.011837184 0.07830936 0.011561036 -0.059418887 0.08306359 0.06525047 0.028771505 -0.07906112
0.037575096 0.055647448 -0.107467294 0.07723093 0.003979102 0.052349314 0.026741236 0.04042238
-0.029758021 -0.045996025 -0.11483197 0.09921299 -0.09081702 -0.122565106 0.09391078 -0.09946169
-0.044778094 0.008875862 0.020577818 0.11138007 0.08377735 0.11700548 0.10343312 -0.068354905
-0.033585653 0.06628992 0.105805665 0.11579384 0.1149686 0.008227736 0.08432363 0.004046738
0.051923946 -0.0611545 -0.090988025 0.104769945 0.03184639 -0.0651681 0.06284489 0.09518331
-0.075280696 -0.08060753 0.11244036 0.10594921 -0.026284754 -0.12426221 -0.0064525753 -0.12192914
0.0044787526 -0.02136074 0.10203895 0.10315147 0.10043837 -0.04724522 0.0038375854 -0.01775895
0.006264046 -0.023430556 -0.008318871 -0.06735258 0.074887484 -0.041134626 0.035584897 -0.07819757
-0.07392825 -0.009240389 -0.095090404 0.10962947 -0.04073797 -0.001790911 0.08422984 -0.11284925
-0.12025945 0.093354866 0.12204604 0.08487989 0.017835334 -0.11571136 0.07089569 -0.067383304
-0.059598565 -0.08685206 -0.015499324 0.097781494 -0.03152497 0.11872427 -0.017771393 -0.091753066
0.07368402 0.090483606 -0.027621731 -0.003206566 -0.048763067 0.07301225 0.043644518 0.056770787
-0.025226891 0.09862797 -0.083116665 -0.09806827 -0.068605915 0.07354392 -0.12428534 0.08125137
0.02838324 0.02206187 -0.06760296 0.05671124 -0.09809618 -0.08817421 0.052987486 0.11108655
0.109029576 0.01973842 0.12074216 0.038181514 -0.032173038 0.01052168 -0.10229692 -0.0332627
0.07873495 -0.10526179 -0.11904657 0.020378724 0.0030923784 0.12176798 -0.08991036 -0.12383883
-0.11865154 -0.09425333 0.0035158247 0.032860294 0.04691367 -0.009934038 -0.11445333 -0.020790547
-0.099522546 0.035878733 -0.0033694357 -0.12196854 0.04309313 -0.12286329 -0.010458931 -0.10977529
-0.096289665 -0.0077688396 0.11551522 -0.120478705 -0.031179875 0.06071554 0.09883323 -0.008111611
-0.09578484 -0.04479441 -0.107575655 -0.100363776 0.01912497 -0.07799269 0.11755352 -0.11557415
-0.08657417 0.008373722 0.10897909 -0.0022718757 0.064162806 -0.12497808 -0.034562677 0.026904553
-0.07702112 -0.102571115 0.121942416 0.061099008 0.07493611 0.030096978 0.045776263 0.044619456
0.020218149 0.057844788 0.03888966 -0.1084535 -0.107813075 0.0010325462 0.011867762 -0.109650776
0.07911584 0.08302733 -0.007954016 -0.057448253 0.11105135 -0.06512421 -0.004719436 0.07057853
-0.07031025 0.05829546 0.08360705 0.039035305 0.049910143 -0.02691859 -0.10532814 0.114599004
0.03499712 -0.03772986 0.016914323 -0.053807154 0.032984585 -0.060867622 -0.020351648 -0.05931747
00000000: 8eb9 d7bd e8d2 ec3c c865 d53d 6611 bb3d
00000010: 6c7f debd b8d4 893c e642 af3d baf5 e63d
00000020: 74ab 06bd d0ac 623d 78d5 e3bd 967c aa3d
00000030: d2ff fe3d 5282 dc3d b617 f33d f0b3 673d
00000040: 90de 61bc 48c0 d73d 0873 6d3d f882 b83c
00000050: d07f 0a3c f602 f03d 00f0 59ba a8d7 d7bd
00000060: 5810 9bbc f0ce 0c3c 6011 8ebd 6054 1fbc
00000070: 4888 a63c 2895 bfbd 004f 47bc b2f5 ba3d
00000080: 20ce aa3c f01c ef3d d40e f43d e848 cf3c
00000090: 707e 173c b036 07bd 207b 1e3c 8066 d23b
000000a0: c0f0 413c a860 a03d 806a 3d3c 3861 73bd
000000b0: 3e1d aa3d 0aa2 853d 38b2 eb3c ccea a1bd
000000c0: 58e8 193d 94ee 633d d017 dcbd 402b 9e3d
000000d0: 2063 823b 3c6c 563d 7010 db3c f091 253d
000000e0: 18c7 f3bc 5466 3cbd 062d ebbd 2e30 cb3d
000000f0: 46fe b9bd 6a03 fbbd 4c54 c03d 92b2 cbbd
00000100: 3c69 37bd 106c 113c d092 a83c 3c1b e43d
00000110: 7693 ab3d 92a0 ef3d bed4 d33d a8fd 8bbd
00000120: 1c91 09bd 02c3 873d a4b0 d83d 5225 ed3d
00000130: a874 eb3d a0cd 063c deb1 ac3d 809a 843b
00000140: 34ae 543d 247d 7abd ee57 babd a091 d63d
00000150: 5c71 023d da76 85bd d2b4 803d 78ef c23d
00000160: c42c 9abd 9015 a5bd 2247 e63d e6fb d83d
00000170: 2053 d7bc 307d febd 2070 d3bb fcb5 f9bd
00000180: 80c2 923b b8fc aebc ccf9 d03d 1441 d33d
00000190: a2b2 cd3d 3484 41bd 0080 7b3b 387b 91bc
000001a0: a042 cd3b 70f1 bfbc e04b 08bc 26f0 89bd
000001b0: 9c5e 993d c87c 28bd 78c1 113d 0c26 a0bd
000001c0: b267 97bd 0065 17bc c2be c2bd 6a85 e03d
000001d0: dcdc 26bd 00bd eaba b280 ac3d 821d e7bd
000001e0: 964a f6bd d630 bf3d 46f3 f93d 82d5 ad3d
000001f0: 681b 923c 14fa ecbd c231 913d 4200 8abd
00000200: a01d 74bd 7edf b1bd e0f0 7dbc aa41 c83d
00000210: 5420 01bd b625 f33d 5095 91bc 08e9 bbbd
00000220: a6e7 963d 784f b93d f846 e2bc 4025 52bb
00000230: c8bb 47bd 7287 953d 98c4 323d 7c88 683d
00000240: a0a8 cebc 76fd c93d 1239 aabd 04d8 c8bd
00000250: 4281 8cbd 329e 963d 5089 febd 1e67 a63d
00000260: f883 e83c 18bb b43c 6c73 8abd 0c4a 683d
00000270: a6e6 c8bd ae94 b4bd 6809 593d 5881 e33d
00000280: e64a df3d 78b2 a13c aa47 f73d 3864 1c3d
00000290: e0c7 03bd 2063 2c3c 0c81 d1bd 783e 08bd
000002a0: ca3f a13d 7e93 d7bd b0ce f3bd 48f1 a63c
000002b0: 80a9 4a3b 7e61 f93d ec22 b8bd 369f fdbd
000002c0: 94ff f2bd e407 c1bd c069 663b 8498 063d
000002d0: 8c28 403d 60c2 22bc 8266 eabd f050 aabc
000002e0: 7ad2 cbbd 94f5 123d c0d1 5cbb a4ca f9bd
000002f0: 6c82 303d c09f fbbd f05b 2bbc ded1 e0bd
00000300: 8433 c5bd c091 febb 3e93 ec3d 8abd f6bd
00000310: f06c ffbc dcb0 783d 1469 ca3d 90e6 04bc
00000320: d82a c4bd 587a 37bd a050 dcbd 868b cdbd
00000330: f8ab 9c3c a2ba 9fbd e6bf f03d 24b2 ecbd
00000340: cc4d b1bd f031 093c 6e30 df3d c0e3 14bb
00000350: ca67 833d 82f4 ffbd 9891 0dbd f066 dc3c
00000360: 40bd 9dbd ce10 d2bd f2bc f93d f442 7a3d
00000370: 1a78 993d f08d f63c e47f 3b3d e4c2 363d
00000380: 88a0 a53c a8ee 6c3d c44a 1f3d de1c debd
00000390: 1acd dcbd 8056 873a 0071 423c 9690 e0bd
000003a0: 7c07 a23d 3c0a aa3d 9051 02bc dc4e 6bbd
000003b0: e46e e33d d85f 85bd 80a5 9abb 7a8b 903d
000003c0: d2fe 8fbd 38c7 6e3d 2c3a ab3d 7ce3 1f3d
000003d0: 946e 4c3d 6084 dcbc 48b6 d7bd e2b2 ea3d
000003e0: 2459 0f3d a08a 1abd e88f 8a3c e464 5cbd
000003f0: d81a 073d 5450 79bd 80b8 a6bc e0f6 72bd

bias f4 [64]
0.07005499 -0.041933164 -0.021487936 0.03831485 0.12392104 -0.016254172 0.029800981 0.053082347
0.046302766 -0.026356235 -0.11202398 -0.05949001 -0.0934107 0.03133817 0.031223387 0.05569063
-0.009504914 -0.081763774 -0.055860043 -0.11896865 -0.1038274 -0.09043802 0.0511847 0.081346884
0.054793224 0.0016295761 0.104576975 -0.061092094 0.10070464 0.0669159 0.006681502 -0.018881008
0.07743719 -0.08635096 0.08626671 -0.039712563 0.07170531 0.07502125 0.026236653 -0.022857815
0.06866649 0.059601024 -0.1107254 0.03314382 -0.016919449 0.025826156 0.009005308 -0.116959006
-0.07007672 0.051505744 -0.10135682 -0.11805171 0.0049322844 0.02086851 0.08930813 0.08564308
0.05814956 -0.03989604 0.07650174 0.094438136 0.01748927 0.06481984 -0.04412979 -0.014872536
00000000: fe78 8f3d 1cc2 2bbd 7807 b0bc 08f0 1c3d
00000010: 50ca fd3d 7827 85bc 3021 f43c e06c 593d
00000020: f8a7 3d3d 08e9 d7bc d46c e5bd ccab 73bd
00000030: 1c4e bfbd 745c 003d 30c8 ff3c dc1b 643d
00000040: 80ba 1bbc c473 a7bd 80cd 64bd d6a5 f3bd
00000050: 76a3 d4bd 9237 b9bd 0ca7 513d 3299 a63d
00000060: dc6e 603d 8097 d53a 742c d63d b43b 7abd
00000070: 3c3e ce3d 340b 893d 80f0 da3b 58ac 9abc
00000080: 6497 9e3d c6d8 b0bd 9aac b03d a4a9 22bd
00000090: 3cda 923d bea4 993d 40ee d63c 5040 bbbc
000000a0: 04a1 8c3d 3420 743d 00c4 e2bd d0c1 073d
000000b0: a89a 8abc 6091 d33c 008b 133c 3488 efbd
000000c0: 6284 8fbd b0f7 523d 2a94 cfbd 18c5 f1bd
000000d0: 009f a13b 70f4 aa3c 2ee7 b63d a465 af3d
000000e0: 3c2e 6e3d 086a 23bd f2ac 9c3d c868 c13d
000000f0: a845 8f3c 44c0 843d 70c1 34bd f0ab 73bc

weight f4 [1, 64]
-0.110921234 -0.0566881 -0.011254117 -0.11927682 0.11663763 -0.025658622 -0.094780475 0.12170197
-0.09223756 -0.11258304 0.035161674 0.01805073 0.070450425 -0.0138876885 0.053965062 -0.11627871
0.1104494 0.027057558 0.015320465 -0.05409786 -0.02627112 0.094873756 0.08219676 0.005344063
-0.11724669 -0.01546517 0.031537414 -0.056802392 -0.019956812 -0.10184902 -0.030014604 -0.10894483
0.07818298 -0.12472278 -0.010551944 0.036931887 -0.093455076 -0.09335995 0.05703771 0.033582836
0.033591166 0.11875217 0.05013141 0.06802665 0.09348172 0.088037565 -0.058012426 0.007726684
-0.041824684 0.054906324 0.021038368 0.11313574 0.0841877 -0.057803422 0.04653497 -0.09823845
-0.002895683 0.047454104 -0.045221746 -0.111793965 -0.03733492 0.07851438 -0.058315992 -0.03385979
00000000: ac2a e3bd c831 68bd 3063 38bc 6847 f4bd
00000010: b6df ee3d 0832 d2bc 441c c2bd e23e f93d
00000020: 0ce7 bcbd f091 e6bd b005 103d 20df 933c
00000030: 5048 903d 3089 63bc 780a 5d3d 8823 eebd
00000040: 4c33 e23d d0a7 dd3c b002 7b3c b895 5dbd
00000050: 8836 d7bc 2c4d c23d c656 a83d 401d af3b
00000060: 081f f0bd a061 7dbc 602d 013d a0a9 68bd
00000070: 787c a3bc 3896 d0bd 30e1 f5bc 781e dfbd
00000080: 661e a03d a86e ffbd 10e2 2cbc e445 173d
00000090: 6065 bfbd 8033 bfbd 60a0 693d 288e 093d
000000a0: e496 093d 5634 f33d 9856 4d3d 8e51 8b3d
000000b0: 5873 bf3d 0a4d b43d 709e 6dbd 2030 fd3b
000000c0: 5c50 2bbd 74e5 603d a858 ac3c b6b3 e73d
000000d0: 9a6a ac3d 48c3 6cbd 749b 3e3d 3e31 c9bd
000000e0: 80c5 3dbb 3c5f 423d 703a 39bd 3cf4 e4bd
000000f0: 80ec 18bd 26cc a03d c0dc 6ebd 90b0 0abd
