models/Vyas_wvy8je_1.pt (torch, 28577 bytes, 5 tensors)

weight f4 [64, 1]
0.038750887 0.5918787 1.2281327 0.77308345 -0.7238468 0.022336645 0.7240691 0.016838009
0.27726376 0.019331133 0.045890473 0.08216538 -0.23689735 0.035919163 0.83227116 -0.5757549
0.67341775 -0.7278265 -0.51395214 -0.6560526 0.86438745 0.5099609 0.67076594 -0.056058127
-0.86979234 0.5310391 0.37988013 1.124712 -0.7377516 0.4911282 0.4585814 0.013070214
0.028089307 0.33794016 0.80339295 0.3284741 0.42516425 -0.24805236 1.2310941 -0.6745353
1.006422 0.976618 0.45575583 0.81529295 1.0543177 0.5573491 -0.9080217 -0.93079233
0.054903332 -0.17432463 0.48485798 -0.091804504 0.6958617 -0.96359515 0.7755978 0.93263423
0.885532 1.0495546 1.0951676 0.28971958 0.55969197 1.2484692 0.35876784 0.81407404
00000000: 40b9 1e3d 5d85 173f 7433 9d3f cce8 453f
00000010: 064e 39bf 57fb b63c 985c 393f ddef 893c
00000020: 84f5 8d3e 535c 9e3c a6f7 3b3d 5346 a83d
00000030: 3895 72be f91f 133d b90f 553f ac64 13bf
00000040: 1b65 2c3f d652 3abf 5e92 03bf 10f3 27bf
00000050: 7f48 5d3f cc8c 023f 51b7 2b3f 359d 65bd
00000060: b6aa 5ebf 2ef2 073f a67f c23e 90f6 8f3f
00000070: 4add 3cbf 2875 fb3e 2ecb ea3e 7324 563c
00000080: 8c1b e63c 7e06 ad3e 29ab 4d3f c22d a83e
00000090: 21af d93e 7001 7ebe 7e94 9d3f 58ae 2cbf
000000a0: 70d2 803f a303 7a3f d458 e93e 0ab7 503f
000000b0: e2f3 863f 6eae 0e3f 1c74 68bf 6848 6ebf
000000c0: 51e2 603d 2882 32be 4e3f f83e 0004 bcbd
000000d0: fe23 323f 2cae 76bf 948d 463f 1ec1 6e3f
000000e0: 3ab2 623f ce57 863f 742e 8c3f 2056 943e
000000f0: f947 0f3f d7cd 9f3f 6bb0 b73e 2867 503f

bias f4 [64]
5.8791347 -3.5121121 -1.3117838 -3.247042 -0.8127636 4.8659124 -1.8831261 5.400363
-2.0363133 5.108703 5.3914347 5.6143904 -0.1741941 5.3315773 -1.5790452 -0.4384563
-1.5885859 -0.526857 -0.31553936 -0.9914582 -1.3847504 -4.183328 -3.019445 4.1390605
-0.1948018 -3.7313166 -4.166853 -0.9837465 -0.9971973 -2.6892135 -1.5253408 5.7583613
5.6371794 -3.776818 -3.7048814 -2.9467742 -4.90674 -0.1905278 -1.4854703 -0.9904382
-3.1346424 -2.0262864 -2.929579 -3.138493 -1.3612758 -4.2986865 -0.70666337 -0.65869534
5.261891 -0.43286145 -1.7804744 -0.99709666 -1.7250345 -0.505263 -2.6500275 -2.850109
-2.4132144 -3.1646442 -1.360388 -4.045783 -2.7935286 -1.5278968 -1.9258496 -1.2177517
00000000: df21 bc40 72c6 60c0 88e8 a7bf 89cf 4fc0
00000010: 4611 50bf 8eb5 9b40 470a f1bf c6cf ac40
00000020: f552 02c0 7f7a a340 a286 ac40 16a9 b340
00000030: f05f 32be 489c aa40 271e cabf 587d e0be
00000040: c856 cbbf 1ae0 06bf 608e a1be 34d0 7dbf
00000050: 803f b1bf d3dd 85c0 963e 41c0 2f73 8440
00000060: 207a 47be e4cd 6ec0 dc56 85c0 d0d6 7bbf
00000070: 5248 7fbf 131c 2cc0 5e3e c3bf 7f44 b840
00000080: c663 b440 63b7 71c0 c71c 6dc0 f397 3cc0
00000090: 0404 9dc0 b819 43be e423 bebf 5c8d 7dbf
000000a0: fb9d 48c0 adae 01c0 397e 3bc0 12dd 48c0
000000b0: 493e aebf d78e 89c0 e4e7 34bf 42a0 28bf
000000c0: 6961 a840 04a0 ddbe 96e6 e3bf ba41 7fbf
000000d0: eecd dcbf ea58 01bf 0d9a 29c0 3068 36c0
000000e0: 1b72 1ac0 8889 4ac0 3221 aebf 0e77 81c0
000000f0: 2cc9 32c0 1f92 c3bf 3d82 f6bf 4adf 9bbf

weight f4 [64, 64]
-0.082050756 -0.12746406 -0.06350259 0.00808427 0.034727454 -0.022294119 -0.039904322 -0.06335159
-0.14293924 0.015989318 -0.060812548 -0.04669164 -0.11569339 0.09728673 0.06495615 -0.037499174
-0.09155665 0.019410297 0.06448066 -0.03966561 -0.12832473 -0.052320607 -0.008989855 -0.09786919
0.047110647 0.09806262 0.017025845 -0.054818835 -0.11678371 -0.059496883 -0.08184324 -0.029614702
0.03491351 0.03959339 0.096763946 -0.021765761 0.06163274 -0.12261537 0.021606656 -0.029414073
0.049344696 0.09374706 -0.07580776 -0.012478845 0.03450268 -0.10945428 -0.059286788 -0.06801011
0.08421819 -0.09574437 -0.09651536 0.007922351 -0.077240534 0.09361012 0.045073204 0.09952697
-0.043625064 0.053825587 -0.06063956 -0.06971741 -0.038538683 -0.053003177 -0.034295123 -0.008648411
-0.08081046 -0.057765543 0.009949148 -0.06298423 0.024397358 0.11178486 0.055193543 -0.02809012
-0.027808681 0.0011929125 -0.10439779 -0.088379845 0.009518251 -0.032450438 -0.029392779 -0.116756395
0.11866276 0.09548508 -0.10069877 0.05280876 0.11193505 0.11386286 -0.08197519 0.05671312
-0.11573112 0.01861906 0.051434845 0.10294485 -0.10578415 -0.0055520386 0.08448106 -0.077885374
-0.12357052 0.040466174 -0.016083628 0.11122735 0.0523037 0.0646825 -0.09857106 -0.046359688
0.07117677 -0.07299933 0.11811964 0.050593823 -0.10898855 -0.11584979 -0.11164352 0.038588986
0.11442013 0.086322114 -0.06956783 -0.031556204 0.01211524 0.04887469 -0.07081325 -0.10512626
-0.09798215 -0.051654637 -0.06355524 -0.07881473 0.09990053 0.06198156 0.0249888 0.010031551
-4.395599 0.37258974 0.05272282 0.30691755 -0.06955661 -4.6644425 0.24209997 -4.823866
0.3380563 -4.8127193 -3.9632204 -3.193432 0.015415534 -4.203519 0.21332778 -0.11871795
0.2202978 -0.039035395 -0.058659405 0.054380015 0.13939579 0.22335054 0.13691565 0.71023554
-0.0002091825 0.2841209 0.3326213 0.089388795 -0.033500567 0.17365351 0.23705411 -4.829009
-4.236368 0.34377646 0.3386549 0.32819656 0.40313008 0.057138294 0.20376363 -0.08043584
0.30725265 0.123528376 0.24678722 0.26365072 0.12606159 0.43480417 0.11605793 -0.09465082
-3.6426225 0.12001027 0.22623377 0.005001962 0.0757393 0.09532268 0.15528192 0.16610055
0.16090515 0.1309258 0.17057663 0.51686245 0.15839675 0.14219368 0.17917286 0.014271004
-4.0578294 0.4521888 0.27425447 0.3166356 -0.017522931 -4.58294 0.32636428 -4.48947
0.22499567 -4.3356204 -3.7513552 -2.9740698 -0.017585233 -3.9554925 0.30880165 0.11356555
0.10070154 -0.080573365 0.036897376 0.0945293 0.077066526 0.47378743 0.32641718 3.4368796
-0.06157428 0.23161991 0.40699288 0.24445988 -0.082923874 0.24199219 0.22779275 -4.491398
-4.060401 0.45833445 0.37884355 0.4820873 0.39081523 0.03538537 0.24648386 0.12275016
0.3319496 0.17745085 0.40580228 0.27571052 0.22901653 0.3237412 -0.12250826 0.049990952
-3.5512512 0.073247224 0.28923094 0.05511667 0.2732608 0.05273354 0.153183 0.26478755
0.29534718 0.21207757 0.19705394 0.47744173 0.24413654 0.16823517 0.40593424 0.120766245
00000000: 3a0a a8bd f085 02be a50d 82bd e373 043c
00000010: 603e 0e3d 28a2 b6bc b772 23bd 7abe 81bd
00000020: aa5e 12be 08fc 823c 9416 79bd bc3f 3fbd
00000030: a8f0 ecbd 443e c73d bb07 853d bc98 19bd
00000040: 0e82 bbbd 5802 9f3c 700e 843d 6878 22bd
00000050: 8f67 03be 224e 56bd 2f4a 13bc a46f c8bd
00000060: 18f7 403d 0ed5 c83d c979 8b3c b789 60bd
00000070: 4c2c efbd 01b3 73bd 6e9d a7bd 889a f2bc
00000080: 7801 0f3d ae2c 223d 2d2c c63d 1c4e b2bc
00000090: 9d72 7c3d c41d fbbd 7100 b13c c8f5 f0bc
000000a0: aa1d 4a3d 75fe bf3d 1941 9bbd 1274 4cbc
000000b0: af52 0d3d 9129 e0bd b4d6 72bd e248 8bbd
000000c0: 967a ac3d a015 c4bd d8a9 c5bd c0cc 013c
000000d0: 4930 9ebd aab6 bf3d ae9e 383d ccd4 cb3d
000000e0: 32b0 32bd 3878 5c3d 3061 78bd 00c8 8ebd
000000f0: bdda 1dbd dc19 59bd 0b79 0cbd 11b2 0dbc
00000100: f47f a5bd 909b 6cbd c001 233c e0fd 80bd
00000110: f8dc c73c 76ef e43d a012 623d 401d e6bc
00000120: 08cf e3bc 805b 9c3a 82ce d5bd 7e00 b5bd
00000130: 70f2 1b3c c0ea 04bd 20c9 f0bc fa1d efbd
00000140: 7605 f33d ae8d c33d 283b cebd 004e 583d
00000150: 343e e53d ee30 e93d 9ce2 a7bd 044c 683d
00000160: 7004 edbd 0087 983c 58ad 523d c0d4 d23d
00000170: 5ca5 d8bd e0ed b5bb 6804 ad3d 5e82 9fbd
00000180: 8a12 fdbd dcbf 253d d0c1 83bc 2acb e33d
00000190: 683c 563d 4278 843d a0df c9bd a8e3 3dbd
000001a0: 20c5 913d ac80 95bd b6e8 f13d 783b 4f3d
000001b0: 6435 dfbd a842 edbd 5ca5 e4bd 7c0f 1e3d
000001c0: 1a55 ea3d a6c9 b03d 9479 8ebd 1441 01bd
000001d0: 007f 463c d430 483d 8a06 91bd 704c d7bd
000001e0: deaa c8bd d093 53bd 4029 82bd 9e69 a1bd
000001f0: a698 cc3d 60e0 7d3d 50b5 cc3c 605b 243c
00000200: bfa8 8cc0 15c4 be3e e2f3 573d 4c24 9d3e
00000210: b273 8ebd 1d43 95c0 0ee9 773e 1c5d 9ac0
00000220: b715 ad3e cc01 9ac0 67a5 7dc0 3161 4cc0
00000230: 7091 7c3c 3a83 86c0 9972 5a3e 6622 f3bd
00000240: bf95 613e 94e3 1fbd d844 70bd 94bd 5e3d
00000250: c5bd 0e3e 01b6 643e 9e33 0c3e ffd1 353f
00000260: 0058 5bb9 4b78 913e 574d aa3e 7911 b73d
00000270: e437 09bd 3ad2 313e 50be 723e 3e87 9ac0
00000280: 5490 87c0 7803 b03e 2d64 ad3e 6109 a83e
00000290: 1167 ce3e d809 6a3d 6aa7 503e 8cbb a4bd
000002a0: 3850 9d3e 72fc fc3d cab5 7c3e 3afd 863e
000002b0: 4a16 013e a79e de3e c8af ed3d 4ad8 c1bd
000002c0: ba20 69c0 f2c7 f53d d3a9 673e 80e7 a33b
000002d0: 351d 9b3d 8a38 c33d 3902 1f3e 4316 2a3e
000002e0: 52c4 243e 6a11 063e a4ab 2e3e 1951 043f
000002f0: c232 223e 389b 113e 1779 373e eed0 693c
00000300: bdd9 81c0 4a85 e73e 156b 8c3e 101e a23e
00000310: 408c 8fbc 72a7 92c0 3819 a73e bda9 8fc0
00000320: 4465 663e 67bd 8ac0 3416 70c0 2957 3ec0
00000330: e80e 90bc ca26 7dc0 401b 9e3e 0e95 e83d
00000340: 9c3c ce3d a603 a5bd b421 173d 9498 c13d
00000350: 0ed5 9d3d 4494 f23e 2720 a73e d6f5 5b40
00000360: 5035 7cbd c52d 6d3e 5f61 d03e b153 7a3e
00000370: fed3 a9bd cdcc 773e 8142 693e 88b9 8fc0
00000380: ceee 81c0 d0aa ea3e c8f7 c13e 26d4 f63e
00000390: ef18 c83e 40f0 103d 4466 7c3e 7064 fb3d
000003a0: 4cf5 a93e adb5 353e 51c5 cf3e ee29 8d3e
000003b0: 4f83 6a3e 68c1 a53e 9ce5 fabd 50c3 4c3d
000003c0: b347 63c0 a402 963d 1416 943e 04c2 613d
000003d0: d7e8 8b3e 20ff 573d 01dc 1c3e 3c92 873e
000003e0: bf37 973e dd2a 593e 82c8 493e 3e73 f43e
000003f0: eefe 793e d745 2c3e 9dd6 cf3e 4b54 f73d

bias f4 [64]
0.030748416 -0.033094704 -2.3892188 -2.2356644 -0.14462537 -2.0433452 -0.04654467 0.08926299
-0.08849027 3.1906133 0.095277734 -2.082471 -0.11592074 -2.325863 -2.2428198 -2.1214073
3.8424432 -0.092530325 -0.00035827528 -0.03095998 3.2767615 -0.13692354 -2.369905 0.0734788
0.06884059 -1.9057807 -0.098600134 -2.2653852 -2.3022344 -0.10501974 -0.07099432 -0.04304923
-0.2233647 -2.4399717 0.010149592 -2.022072 -2.025918 -2.0526385 -2.2743907 -2.3341484
2.2235973 -2.0483 -1.7109885 -0.09050856 -1.9212152 -0.11356419 -0.06893663 -0.07249614
-0.03887246 -2.180089 -2.2377577 -0.025431126 -2.385516 -1.9318317 4.367808 -2.3508792
-1.9268377 -0.013729407 -2.3086257 -2.1736524 3.8569906 0.08389236 -0.06480113 -0.0450636
00000000: 1ae4 fb3c 508e 07bd f6e8 18c0 2015 0fc0
00000010: ac18 14be 2bc6 02c0 a0a5 3ebd 84cf b63d
00000020: 633a b5bd 0233 4c40 f920 c33d 3447 05c0
00000030: da67 edbd f0da 14c0 5c8a 0fc0 23c5 07c0
00000040: 97ea 7540 8a80 bdbd e5d6 bbb9 c99f fdbc
00000050: 76b6 5140 af35 0cbe 86ac 17c0 0e7c 963d
00000060: 4cfc 8c3d 9ff0 f3bf deee c9bd 12fc 10c0
00000070: cf57 13c0 9714 d7bd 7865 91bd 6454 30bd
00000080: b7b9 64be 7f28 1cc0 794a 263c a169 01c0
00000090: a4a8 01c0 6e5e 03c0 9e8f 11c0 b062 15c0
000000a0: 6b4f 0e40 5917 03c0 ac01 dbbf 8d5c b9bd
000000b0: 61ea f5bf 5894 e8bd a62e 8dbd db78 94bd
000000c0: bb38 1fbd 9486 0bc0 6c37 0fc0 f054 d0bc
000000d0: 4bac 18c0 4346 f7bf 15c5 8b40 ce74 16c0
000000e0: 9ea2 f6bf 4ff1 60bc 86c0 13c0 1f1d 0bc0
000000f0: efd8 7640 c2cf ab3d 74b6 84bd 9c94 38bd

weight f4 [1, 64]
-0.10858211 0.024818942 1.2910182 0.95557165 -0.013183468 0.83158654 0.002701193 -0.03318185
-0.06273765 5.7260737 -0.06508375 0.8356766 0.0019025654 1.2080956 0.8692664 0.8637425
-4.6339126 -0.023490356 -0.04837726 -0.004971688 5.726847 -0.08887901 1.0009564 -0.113332786
0.00024732685 0.86265117 -0.06966895 0.9351498 0.98348516 -0.08625335 -0.02156457 -0.03229595
0.004885299 1.0734396 -0.10493354 0.8920238 0.8999897 0.84453034 0.89632344 1.4096247
3.9704592 0.8266881 0.7034302 0.020438248 0.7498489 0.043319404 0.00035979232 -0.01114042
-0.07098706 0.85247874 1.3861737 -0.006000504 1.1646899 0.86217016 -4.375491 1.243033
0.81477153 -0.05938585 1.0608159 1.1376139 -4.350696 -0.08366953 -0.11116533 -0.013563886
00000000: 4c60 debd 1851 cb3c 1640 a53f 58a0 743f
00000010: 79ff 57bc dbe2 543f 8006 313b b1e9 07bd
00000020: 997c 80bd ff3b b740 a14a 85bd e7ee 553f
00000030: 805f f93a e0a2 9a3f 3e88 5e3f 3a1e 5d3f
00000040: 0349 94c0 d96e c0bc 3c27 46bd 8be9 a2bb
00000050: 5542 b740 3306 b6bd 571f 803f 051b e8bd
00000060: a6ab 8139 b5d6 5c3f 98ae 8ebd fa65 6f3f
00000070: afc5 7b3f 99a5 b0bd 2ea8 b0bc c248 04bd
00000080: dc14 a03b 7866 893f 65e7 d6bd ac5b 643f
00000090: ba65 663f 2433 583f 7475 653f 956e b43f
000000a0: 011c 7e40 d5a1 533f 0014 343f 1d6e a73c
000000b0: 19f6 3f3f b06f 313d 82a2 bc39 4f86 36bc
000000c0: aa61 91bd 0c3c 5a3f 246e b13f e09f c4bb
000000d0: 8f14 953f 2fb7 5c3f 0604 8cc0 b51b 9f3f
000000e0: de94 503f 943e 73bd d1c8 873f 559d 913f
000000f0: e738 8bc0 ee5a abbd a6aa e3bd 103b 5ebc
